modelo_femnn.pt (torch, 5911 bytes, 10 tensors)

hidden1.weight f8 [10, 1]
0	0xbfe46867840eb234	-0.6377446727033829
1	0xbfef84e401f1be59	-0.9849720037436313
2	0xbfd8b9c55e817aaa	-0.38633856038169745
3	0xbfe6516af0ee62f9	-0.6974386888205962
4	0x3fe2cb333cfb94c4	0.5873047057217708
5	0xbff3866b89e201d0	-1.2203174005554622
6	0xbfed761e458032c9	-0.9206687314450274
7	0x3fe3d45f9811cd17	0.6196744890316123
8	0xbfdf3ae6ee4f205c	-0.4879700972783263
9	0xbfe000bb16685add	-0.5000892102860593

hidden1.bias f8 [10]
0	0x3ff3becb2bfc01ea	1.2340804784909047
1	0x3ff746afd73606f7	1.4547575384789846
2	0x3feaae1edefd6b8e	0.8337549548408434
3	0x3ff798e0e206e45d	1.474823840062775
4	0x3fe2668b30412f03	0.5750175421212308
5	0x3fee901cf30ba6e5	0.9550919291479799
6	0x3fea2c3256438f64	0.8178950962869576
7	0x3fd4b855933a59cb	0.3237508714459209
8	0x3ff7fe92943c3a8b	1.4996515074196022
9	0x3fdf195176f8efec	0.48592030161284927

hidden2.weight f8 [10, 10]
0	0xbfd26d3dce74d714	-0.28791756784208755
1	0x3fe10a605da7474d	0.5325166539352978
2	0x3fded56e88802b95	0.48177684145110194
3	0xbfdad9e01b7bcb6b	-0.4195480602640404
4	0xbff1e492b99dfdf7	-1.1183039904279874
5	0x3fe62e8d3d59a199	0.6931825826878139
6	0x3fd26f42fa441f23	0.2880408710484394
7	0xbfe9cc4c6063ab72	-0.8061887629131503
8	0xbfe86eee1de4a885	-0.7635412772990696
9	0x3fe9fe0459fd261c	0.8122579343409515
10	0xbfeea16afd434c77	-0.9572043367901547
11	0xbfc31a122edfeaf8	-0.14923312462618532
12	0x3fe353375d38a977	0.6039082356194702
13	0xbfe7a99dd714c985	-0.7394551468662917
14	0x3f7c8032bc36a33d	0.006958196815880777
15	0xbf8520e842ebb6db	-0.010316671888598907
16	0x3faad9cd616fdba2	0.05244294943252405
17	0x3fc8fc15aaec03b2	0.19519301267430716
18	0xbfe29496a11d57ba	-0.5806382319230956
19	0x3fdd00b928d21226	0.45316914545427023
20	0xbfe2f1cb22ee12e6	-0.5920158083177653
21	0xbfd15eaa3f36756f	-0.27140289471738915
22	0xbfe9d4bd01413b3a	-0.8072190308101661
23	0x3f9ab953c7bbafb3	0.026097592416519166
24	0x3febe77e26275fa5	0.87200839473643
25	0xbfe3af4985bd6c84	-0.6151473629100939
26	0xbfe66ffd7efd1e78	-0.7011706810234974
27	0x3fd803910359773c	0.375217679282162
28	0x3f88e7ce70477317	0.01216088562153454
29	0xbfc75e1b81ec2f63	-0.18255943149449214
30	0x3fdf16ad82415972	0.485759141161359
31	0x3fe40eb3c85c8043	0.6267947114283817
32	0xbfce4b8c09ca13fe	-0.2366805122184416
33	0xbfd631bb77f6b1fb	-0.3467854186554004
34	0xbfe97090efc9500a	-0.7949909861877142
35	0xbfcbecfd8f1c153e	-0.21816987502840307
36	0x3fd6d39376f4abb0	0.3566635762860484
37	0xbfe77b528c47dd9a	-0.7338040103776848
38	0x3fb7486bc4d6a120	0.09094880633950142
39	0x3fd17953ae2a9f90	0.27303020485350604
40	0xbfd7a0007d06421d	-0.3691407414380892
41	0x3fbfe5d6b2f84383	0.12460080975894354
42	0xbfd1cd95ee21e16d	-0.2781729531775657
43	0xbfd56a6f70b98968	-0.33462129600788737
44	0xbfd2fc4cb322a295	-0.2966491460197543
45	0x3fe65d4dbef3ddd2	0.6988896112006222
46	0x3fc298db00372852	0.14528977880974253
47	0x3fd3d8522324632f	0.31007817680215316
48	0xbf70386471086429	-0.003960029935592004
49	0xbfde8ff4b6f49744	-0.4775363718675758
50	0xbfb910a54f258d9c	-0.09791024381916319
51	0x3fdee671299ca584	0.48281506599104085
52	0xbfd5bdcae40d5004	-0.33970901747420634
53	0x3fe9af177529ad8e	0.8026234901748681
54	0x3fdabb016e61da0f	0.41766391543879505
55	0x3fefa8c29ff0681d	0.989350616818459
56	0x3ff3dca1e2d5f163	1.241365324093828
57	0x3fd7d88cfaff305b	0.37259220611008964
58	0x3fe4e5aaa81e5bbe	0.6530354770246658
59	0x3fc334eccea230b9	0.15005264367608165
60	0x3fd71eaa37a04704	0.36124663765177467
61	0x3ff46886fcb1a75c	1.275519358716756
62	0xbf989e61266b5ecc	-0.024041669816908848
63	0x3feb73119f5c3c19	0.8577964890008644
64	0xbfc405a3022fea4b	-0.1564220200233016
65	0x3fdff7c9a0338984	0.4994987549272525
66	0x3fd6f0761404e972	0.35842658953665485
67	0xbfd319ac430d08a8	-0.2984419493478847
68	0x3fe86781e5ce1d2b	0.7626351822263236
69	0xbfcbaf229d23acfa	-0.21628220246143554
70	0x3fe421f6239cf682	0.6291456885880538
71	0x3fe8f6a05a6daa10	0.7801057592562888
72	0xbfd486e9ddb622af	-0.3207344689513247
73	0x3fe58910db3ece3c	0.6729816705832898
74	0xbfe2f79e72c10cf9	-0.5927269212046716
75	0xbfe5cd19355d6ed3	-0.6812864343914619
76	0x3f766a14489226ae	0.005472258789390656
77	0x3fc44adef483196a	0.15853487910335257
78	0x3feca7be3ee64d69	0.8954764584072282
79	0xbfc50bd7bad6617d	-0.16442391035958429
80	0xbfdbd5afd9c5b15c	-0.4349174143487937
81	0x3fd23a40b656b2fa	0.28480546766768067
82	0x3ff07308ecea5a91	1.028084683848338
83	0xbfc25c200df9f73a	-0.14343643839304737
84	0xbfe606c634ab6fcb	-0.6883269337372381
85	0xbfd6c80916afa04e	-0.3559591981452329
86	0x3fc0c1749de71cec	0.13090379438492705
87	0xbfe3baec30977013	-0.616567702203158
88	0xbfc2ee83007ddcfe	-0.14790380023962507
89	0x3fe2ce40fc4f3bdc	0.5876774719162046
90	0xbfecdadb0639d1e6	-0.9017157670592126
91	0xbfecee3575db23a0	-0.9040782262683145
92	0xbfa0e657144fa201	-0.033007355908754483
93	0xbfd3440e66d79d85	-0.30102882426441396
94	0x3f847b52e72d8f69	0.010000846557609315
95	0xbfbd6295824344f5	-0.11478552274936134
96	0xbff0bcb5c4c598ed	-1.0460717855835882
97	0xbfc6303400505643	-0.17334604277918872
98	0xbfde5a32c1c28d40	-0.47425526544448715
99	0xbfe12de16f0acba0	-0.5368506592552542

hidden2.bias f8 [10]
0	0x3fd2afed7366147c	0.2919877650204581
1	0x3ff203233c307d7d	1.1257660246991172
2	0x3ff4ee5021c720b2	1.308181888527582
3	0x3fe7b9e4e3e97236	0.7414421512035634
4	0x3fea2a43a808e713	0.8176592142037599
5	0x3febb34949364109	0.8656355314178948
6	0x3ff49638d7f56e2f	1.2866753040206154
7	0x3feb49ef3218e828	0.8527751902067893
8	0x3fe9c8c3f0c1af43	0.8057574941899265
9	0x3fe80dd3cea64cf3	0.7516879116177776

predict.weight f8 [1, 10]
0	0xbfe526f98e851c3d	-0.6610076697915087
1	0xbfe52215a1d74602	-0.6604107056575119
2	0x3fe8e28e654e99b4	0.7776557902005181
3	0x3feb7eae1d7c3612	0.8592138839609922
4	0x3fcf3ef13327a0ec	0.2441083431033414
5	0xbfb69445a98d5ce4	-0.08819995297868705
6	0x3fddc1f33372763a	0.46496276878483267
7	0xbff09df1bf50ea1b	-1.0385606263431615
8	0xbfeda78ad2de2027	-0.9267019384869898
9	0xbfd5540a0a75dd1c	-0.33325434705280244

predict.bias f8 [1]
0	0x3fecdda75c1e7860	0.9020573424529736

bn1.weight f8 [10]
0	0x3ff0000000000000	1.0
1	0x3ff0000000000000	1.0
2	0x3ff0000000000000	1.0
3	0x3ff0000000000000	1.0
4	0x3ff0000000000000	1.0
5	0x3ff0000000000000	1.0
6	0x3ff0000000000000	1.0
7	0x3ff0000000000000	1.0
8	0x3ff0000000000000	1.0
9	0x3ff0000000000000	1.0

bn1.bias f8 [10]
0	0x0000000000000000	0.0
1	0x0000000000000000	0.0
2	0x0000000000000000	0.0
3	0x0000000000000000	0.0
4	0x0000000000000000	0.0
5	0x0000000000000000	0.0
6	0x0000000000000000	0.0
7	0x0000000000000000	0.0
8	0x0000000000000000	0.0
9	0x0000000000000000	0.0

bn1.running_mean f8 [10]
0	0x0000000000000000	0.0
1	0x0000000000000000	0.0
2	0x0000000000000000	0.0
3	0x0000000000000000	0.0
4	0x0000000000000000	0.0
5	0x0000000000000000	0.0
6	0x0000000000000000	0.0
7	0x0000000000000000	0.0
8	0x0000000000000000	0.0
9	0x0000000000000000	0.0

bn1.running_var f8 [10]
0	0x3ff0000000000000	1.0
1	0x3ff0000000000000	1.0
2	0x3ff0000000000000	1.0
3	0x3ff0000000000000	1.0
4	0x3ff0000000000000	1.0
5	0x3ff0000000000000	1.0
6	0x3ff0000000000000	1.0
7	0x3ff0000000000000	1.0
8	0x3ff0000000000000	1.0
9	0x3ff0000000000000	1.0
