modelo_femnn.pt (torch, 5911 bytes, 10 tensors)

hidden1.weight f8 [10, 1]
000000 24 0a df ad 8e 4d e4 bf e1 2a e3 fc 6c 5d ef bf
       -0.6344674487994024 -0.9801545085150246
000010 2a 73 d7 be 02 2d d8 bf 4f 01 fd 7b 0e 6a e6 bf
       -0.3777472366034994 -0.7004463597914227
000020 f9 37 b3 33 db da e2 3f 41 f0 e3 fd bb 99 f3 bf
       0.5892158517615363 -1.225032798537555
000030 f9 0d 2d b7 d0 64 ed bf 19 7b 4c 88 bb 0b e4 3f
       -0.9185565545707838 0.6264321958622957
000040 10 b9 de 42 9b 30 df bf fd 7a 49 af a7 13 df bf
       -0.48734170465731186 -0.48557464712023074

hidden1.bias f8 [10]
000000 5c 88 fd 6e 04 ce f3 3f 47 a4 6f 0f 71 57 f7 3f
       1.2377971969185841 1.458848057076709
000010 87 22 2b 85 a3 e6 ea 3f ec 8d ba f2 f6 8b f7 3f
       0.8406541443774395 1.4716710549918117
000020 98 63 19 a8 99 4b e2 3f 62 09 bd 63 c5 7c ee 3f
       0.5717285426318197 0.9527308414474585
000030 04 2f 83 e3 7f 23 ea 3f 6b 7b b4 8a ab 6e d4 3f
       0.8168334430315274 0.3192547659436317
000040 7f 5e de bc 04 00 f8 3f 6b c4 ea b9 55 9b df 3f
       1.5000045182877384 0.49385588794672824

hidden2.weight f8 [10, 10]
000000 86 b9 45 60 3a 90 d2 bf 04 fa 69 e3 07 cd e0 3f
       -0.29005298043821204 0.5250281755141377
000010 01 18 c8 e5 9a 9b de 3f 83 2a d5 5f 1a bb dc bf
       0.4782473796807381 -0.44891986235294484
000020 48 e2 29 87 fb 65 f2 bf 8c 87 a9 ee 41 35 e6 3f
       -1.1498980789020994 0.694001165520818
000030 c9 54 65 6b f4 3a d2 3f 64 1b b6 7b dd bb e9 bf
       0.284848313215957 -0.804182759879819
000040 6c 7f 2d 67 02 01 e9 bf ca 7f b7 ac f7 28 ea 3f
       -0.7813732161703064 0.8175009129881741
000050 51 0d 13 b9 e9 5b ee bf 0f c0 cd b6 b6 17 c2 bf
       -0.9487198462233356 -0.14134868551218502
000060 5f 25 d8 e8 f3 ee e3 3f 58 d8 63 21 5c 88 e7 bf
       0.622919039510787 -0.7353954937123133
000070 31 d1 e7 83 68 a7 8c 3f c4 a8 a5 87 59 23 89 3f
       0.013991180921018117 0.01227445550167195
000080 bc 67 4c 9e c3 6a a7 3f 3a 19 23 e8 c3 de c8 3f
       0.04573642070154402 0.19429825625247493
000090 fc 5d e0 1f e4 6e e2 bf 6e f2 6f a1 34 98 dd 3f
       -0.5760365126215556 0.4624148918663086
0000a0 52 86 32 5b 4e ef e2 bf 5f ec b7 b1 ff 67 cf bf
       -0.5917121678541639 -0.24536129167231288
0000b0 87 e5 73 21 0f cd e9 bf 8f ab e2 67 22 af 97 3f
       -0.8062816289304217 0.023129022207892865
0000c0 a0 fd cf 90 a0 5b ec 3f 4a f5 84 b0 a7 b6 e3 bf
       0.8861849621170457 -0.6160467574733641
0000d0 c3 e3 7d 12 15 62 e6 bf c3 c6 54 79 d3 d9 d7 3f
       -0.699472938648903 0.37267004822488675
0000e0 e3 bd b6 32 25 6c 92 3f ff 5a 25 78 21 c6 c4 bf
       0.01799066659958538 -0.16229647032260883
0000f0 42 f9 8d 7c 5d ad de 3f 4d 1d 36 20 58 45 e4 3f
       0.4793313709596029 0.6334648732308011
000100 80 62 47 96 e8 2a ce bf 1e ea 84 90 f7 b7 d6 bf
       -0.235684464815467 -0.35497845757677904
000110 40 1c 38 68 f5 6b e9 bf d6 63 ab 9f 06 10 cb bf
       -0.7944285426646118 -0.21142657085763855
000120 f7 bb 25 34 36 5d d7 3f c7 0c 2f f8 2c 41 e7 bf
       0.3650641927005717 -0.7267060134257911
000130 4f 1b f1 3e 29 09 b7 3f c9 0f 39 1c 45 8f d0 3f
       0.08998353754678344 0.2587445045103292
000140 38 05 de eb 1d a4 d7 bf d0 fb 73 15 db 31 c0 3f
       -0.36939189943230444 0.12652147815239667
000150 d2 71 08 c5 71 ae d1 bf aa 97 31 20 f6 76 d5 bf
       -0.276272241988207 -0.3353858293906976
000160 8b 84 c0 9f 19 ed d2 bf c8 f4 9e 3c 58 6f e6 3f
       -0.2957214412763924 0.7010918792726892
000170 d5 8d 30 6a c8 46 bf 3f 52 38 0f df 8e de d3 3f
       0.12217381088753794 0.3104588678660366
000180 26 b5 d6 d4 ae 5b 6e bf 6a ed 84 4c e4 18 db bf
       -0.003705827205257822 -0.4233942744501379
000190 6e 32 1f 8e dd fc c1 bf 2e b4 83 93 0e 66 df 3f
       -0.14052934112114052 0.4906040611811616
0001a0 f8 f2 62 cc 5c 4b d4 bf 79 51 ec 82 e3 1e e8 3f
       -0.3170997615778073 0.7537705952732231
0001b0 d0 77 38 15 20 61 da 3f d3 25 ef 35 36 78 ef 3f
       0.41217805931398477 0.9834242871667648
0001c0 ed aa 6f c3 84 b0 f3 3f bc 9c 50 2c fa 8e d8 3f
       1.2305953630663524 0.3837266381037343
0001d0 8e ad 27 f2 d2 8d e1 3f 25 74 1a aa 9e 09 cf 3f
       0.5485625009145438 0.24248107248141185
0001e0 67 96 6c 60 e6 e0 d9 3f 9a 54 ba ec 8d 86 f4 3f
       0.4043518010751996 1.282850193708589
0001f0 a2 48 ec 08 18 f6 93 bf db 54 03 45 5c 96 ec 3f
       -0.019493461174598388 0.8933545444403096
000200 a0 5d ef 9c 01 67 c4 bf 4a 1b 02 d7 41 11 e0 3f
       -0.15939350283472908 0.5021065902118178
000210 99 7c 17 d5 7a 38 d7 3f ca 18 52 6c d7 54 d3 bf
       0.36282225427380294 -0.30205331400101143
000220 ba 47 c6 05 0b 6b e8 3f df e6 3a bc 3e cd cb bf
       0.7630667794021442 -0.21720108214304099
000230 c8 f5 72 cb 3c 7d e5 3f 57 ec 9b 6c e8 2c e9 3f
       0.6715377782454022 0.7867319222708699
000240 3d 91 48 22 40 e7 d3 bf 2d 56 8e fc 5e 83 e5 3f
       -0.31098941181177847 0.6722865040525839
000250 77 c3 1d fd 65 d8 e2 bf 99 34 8e 7a 06 ac e5 bf
       -0.5889158195187595 -0.6772491830503383
000260 8b eb 4c cf 97 09 80 3f 49 98 68 3e 7a c4 c3 3f
       0.007830797208603154 0.15443351790708196
000270 fa f6 a5 73 00 f6 ec 3f a4 b5 01 65 6c b2 c3 bf
       0.9050295122867447 -0.15388255054442113
000280 d7 51 46 c5 ca ba db bf 48 99 cc fa 8d 86 d2 3f
       -0.43327588334184725 0.2894625615321229
000290 30 64 0b 96 10 76 f0 3f 35 ee 68 1f 66 0c c2 bf
       1.0288244114983733 -0.14100338491140155
0002a0 62 4a 04 ea 1b bc e5 bf 9e 23 39 a0 1f 80 d6 bf
       -0.6792125292434543 -0.35157004019543503
0002b0 78 2e f6 ca 93 d5 bf 3f b6 08 bd c3 f9 d1 e3 bf
       0.12435268120878529 -0.6193817923561002
0002c0 69 b2 2f 13 72 51 c2 bf a6 15 39 ef 76 e0 e2 3f
       -0.14311052262145843 0.5899004623722035
0002d0 06 0e 74 bc 1d 18 ed bf 65 46 5a f8 3f ab ec bf
       -0.9091938667992856 -0.8959045267713007
0002e0 79 23 d4 78 5d ee 8c bf 3a 51 23 08 f0 a5 d3 bf
       -0.014126520395181906 -0.30700302881929853
0002f0 ad a2 43 04 df 1b 58 bf 35 9e 2e ac 01 85 bb bf
       -0.0014714887520829543 -0.1074982686392268
000300 57 4a e4 bf ea be f0 bf 6b 15 f2 5b 2b 8d c7 bf
       -1.0466105933925485 -0.18399564733060045
000310 16 45 7b 2a 4a 32 df bf 79 d9 3a 74 21 4e e0 bf
       -0.4874444403513548 -0.5095374364962445

hidden2.bias f8 [10]
000000 5f 95 ba 01 59 4e d2 3f 6e b4 11 fe 70 16 f2 3f
       0.28603196305114936 1.130478851754812
000010 ff 2c a7 ca 90 13 f5 3f c2 0d 37 e4 83 85 e8 3f
       1.3172767559179304 0.7662982423138873
000020 2f 8e 4b a2 dd 35 ea 3f 54 7a ae 5c fa fb eb 3f
       0.819075409872715 0.8745090303598979
000030 34 17 d5 7f 9a 85 f4 3f e1 d3 5b 07 fa 82 eb 3f
       1.2826180451824714 0.8597383636212009
000040 ec c3 5f 62 38 52 ea 3f f2 29 8f 2d 72 b5 e7 3f
       0.8225366517418684 0.740899170859221

predict.weight f8 [1, 10]
000000 17 2b dc b9 41 a5 e7 bf ba ef 92 c7 25 59 e5 bf
       -0.7389229421690712 -0.6671322725228415
000010 c5 19 ce 83 e1 3d ea 3f df 63 b0 87 7f ef ec 3f
       0.8200538229291899 0.904235615747094
000020 f1 51 bc 65 79 e9 cb 3f 46 1d e8 c2 f2 8c b7 bf
       0.2180625674015029 -0.09199445017303728
000030 d5 a4 8a 2b 94 db dd 3f 4f bb c3 9e f1 01 f1 bf
       0.4665270257197112 -1.0629745675793918
000040 db 87 e8 be 7c 3b ee bf 98 97 b7 c1 06 dc d6 bf
       -0.944761631839579 -0.3571793452996359

predict.bias f8 [1]
000000 db fb 75 69 01 40 ed 3f
       0.9140631732733441

bn1.weight f8 [10]
000000 00 00 00 00 00 00 f0 3f 00 00 00 00 00 00 f0 3f
       1.0 1.0
000010 00 00 00 00 00 00 f0 3f 00 00 00 00 00 00 f0 3f
       1.0 1.0
000020 00 00 00 00 00 00 f0 3f 00 00 00 00 00 00 f0 3f
       1.0 1.0
000030 00 00 00 00 00 00 f0 3f 00 00 00 00 00 00 f0 3f
       1.0 1.0
000040 00 00 00 00 00 00 f0 3f 00 00 00 00 00 00 f0 3f
       1.0 1.0

bn1.bias f8 [10]
000000 00 00 00 00 00 00 00 00 00 00 00 00 00 00 00 00
       0.0 0.0
000010 00 00 00 00 00 00 00 00 00 00 00 00 00 00 00 00
       0.0 0.0
000020 00 00 00 00 00 00 00 00 00 00 00 00 00 00 00 00
       0.0 0.0
000030 00 00 00 00 00 00 00 00 00 00 00 00 00 00 00 00
       0.0 0.0
000040 00 00 00 00 00 00 00 00 00 00 00 00 00 00 00 00
       0.0 0.0

bn1.running_mean f8 [10]
000000 00 00 00 00 00 00 00 00 00 00 00 00 00 00 00 00
       0.0 0.0
000010 00 00 00 00 00 00 00 00 00 00 00 00 00 00 00 00
       0.0 0.0
000020 00 00 00 00 00 00 00 00 00 00 00 00 00 00 00 00
       0.0 0.0
000030 00 00 00 00 00 00 00 00 00 00 00 00 00 00 00 00
       0.0 0.0
000040 00 00 00 00 00 00 00 00 00 00 00 00 00 00 00 00
       0.0 0.0

bn1.running_var f8 [10]
000000 00 00 00 00 00 00 f0 3f 00 00 00 00 00 00 f0 3f
       1.0 1.0
000010 00 00 00 00 00 00 f0 3f 00 00 00 00 00 00 f0 3f
       1.0 1.0
000020 00 00 00 00 00 00 f0 3f 00 00 00 00 00 00 f0 3f
       1.0 1.0
000030 00 00 00 00 00 00 f0 3f 00 00 00 00 00 00 f0 3f
       1.0 1.0
000040 00 00 00 00 00 00 f0 3f 00 00 00 00 00 00 f0 3f
       1.0 1.0
